models/patchtst_model_ft_v2.pt (torch, 862394 bytes, 404 tensors)

model.encoder.embedder.input_embedding.0.weight f4 [64, 1]
0.01237191 -0.02442758 0.01850639 -0.020404689 0.023345102 0.016688297 -0.010838846 -0.028695539
0.018733496 -0.0015889629 -0.0077108038 -0.028827129 0.0068837795 0.019875966 -0.00017186633 -0.014151739
0.02961842 0.0016101144 0.0019785685 -0.00073946174 0.024005735 0.00024138152 -0.025475534 0.0027581484
0.03118954 0.0061589903 0.031140273 0.00901175 -0.0016908642 -0.030471405 0.01106522 0.010738328
0.04858802 -0.003097063 0.029371882 0.009068978 -0.034035377 0.0013782927 -0.023423813 -0.02994422
0.0202277 -0.033797428 -0.041888613 0.002654123 0.024256276 -0.015035639 0.031826004 0.021523014
0.02196816 0.037464473 0.01763477 0.008462681 -0.0061968025 0.0022615897 0.028810373 -0.007747985
0.023189086 -0.023807516 0.010317894 -0.020208182 0.043962687 0.0013633791 0.0043730796 0.013927538
00000000: 8db3 4a3c 591c c8bc b69a 973c bc27 a7bc
00000010: 3a3e bf3c e5b5 883c 6a95 31bc e812 ebbc
00000020: fd76 993c bf44 d0ba e9aa fcbb df26 ecbc
00000030: 5491 e13b ecd2 a23c 0437 34b9 b2dc 67bc
00000040: 54a2 f23c 790a d33a dfaa 013b 70d8 41ba
00000050: ada7 c43c 5c1b 7d39 11b2 d0bc 0dc2 343b
00000060: 3581 ff3c 5bd1 c93b e319 ff3c 05a6 133c
00000070: fd9f ddba 2b9f f9bc e64a 353c d0ef 2f3c
00000080: 3b04 473d 18f8 4abb 4d9d f03c 0d96 143c
00000090: ae68 0bbd d4a7 b43a 4ce3 bfbc 954d f5bc
000000a0: 90b4 a53c 2c6f 0abd 6593 2bbd cbf0 2d3b
000000b0: 19b5 c63c 0a58 76bc fc5b 023d 0851 b03c
000000c0: 92f6 b33c 5974 193d cb76 903c 0fa7 0a3c
000000d0: 8c0e cbbb 2e37 143b bb03 ec3c cfe2 fdbb
000000e0: 0af7 bd3c fb07 c3bc 620c 293c a18b a5bc
000000f0: 3812 343d 69b3 b23a 0d4c 8f3b 5430 643c

model.encoder.embedder.input_embedding.0.bias f4 [64]
-4.918004e-05 0.00074777537 -0.00016048929 0.00055874384 -0.00014702562 4.0139355e-05 -0.00019736371 0.00016110794
-0.00016639242 -0.00018073262 0.00032294125 0.00039070437 -0.00018037333 6.924694e-05 -0.00017830326 -4.536358e-05
-7.568057e-05 -0.0006694168 -0.00016105741 0.00039867073 -0.00019394257 -6.753514e-05 0.00048768238 -0.0002827422
0.00020063747 -6.2609586e-05 0.00028686607 -0.00020234182 -0.0006594809 -0.00027443407 -0.00012242873 -0.0006297068
0.00023458648 -9.4955045e-05 0.00017606743 0.0003042023 0.0002167788 -0.0001053028 0.00026040286 0.0001946682
0.00024234821 -7.398552e-05 -0.00016092461 8.1147555e-05 0.00013727741 -8.956516e-05 -0.0001335515 -0.00012278826
-0.00010016368 0.0002557248 -0.00017899915 0.0002526667 -0.00038624185 4.542624e-05 1.20472805e-05 -1.5989808e-06
-0.00015597916 -0.0004185743 -2.5713682e-05 4.7288097e-05 0.0001610069 6.517777e-05 -0.00038486562 -0.00052659406
00000000: aa46 4eb8 5b06 443a 0449 28b9 aa78 123a
00000010: e42a 1ab9 4e5b 2838 6bf3 4eb9 15ef 2839
00000020: a079 2eb9 0b83 3db9 7150 a939 74d7 cc39
00000030: 9922 3db9 ab38 9138 ebf6 3ab9 c644 3eb8
00000040: b2b6 9eb8 cd7b 2fba 85e1 28b9 ae04 d139
00000050: 105d 4bb9 a7a1 8db8 9faf ff39 043d 94b9
00000060: 3662 5239 444d 83b8 8366 9639 b82b 54b9
00000070: 04e1 2cba ebe1 8fb9 3660 00b9 e812 25ba
00000080: 54fb 7539 9a22 c7b8 be9e 3839 577d 9f39
00000090: 1e4f 6339 03d6 dcb8 ae86 8839 d91f 4c39
000000a0: da1e 7e39 ac28 9bb8 dfbd 28b9 c32d aa38
000000b0: 20f2 0f39 eed4 bbb8 f509 0cb9 b9c0 00b9
000000c0: f70e d2b8 cd12 8639 b8b1 3bb9 5a78 8439
000000d0: 8180 cab9 0e88 3e38 ad1e 4a37 909c d6b5
000000e0: 568e 23b9 1774 dbb9 b6b3 d7b7 3557 4638
000000f0: f6d3 2839 0cb0 8838 cac7 c9b9 210b 0aba

model.encoder.embedder.input_embedding.1.weight f4 [64, 1]
-0.012309677 0.023557171 -0.014125372 0.005157118 -0.022179442 0.03191374 -0.009858317 0.00657527
-0.0029766925 -0.029238457 0.005480277 0.027174396 -0.020593937 0.0046833125 -0.0044204993 0.005110677
0.036400035 0.028296676 0.0012361485 0.011047689 0.006743165 0.022391796 -0.013874884 -0.035440657
-0.008358355 0.028172938 0.0066679665 0.0018201276 0.041615505 0.01044288 0.011089386 -0.0035730568
-0.0020769115 -0.029446715 -0.018470963 0.003326435 -0.020205263 -0.023179721 -0.0073534823 -0.009837855
0.0014238174 -0.029399244 -0.018747993 -0.0015593347 -0.031752974 -0.0042074337 0.006466647 0.033934806
-0.00062515505 -0.0011368919 -0.005291942 -0.02296715 0.022296771 0.02952614 -0.049136747 -0.034600843
0.0060411734 -0.019321177 -0.04677262 -0.0018324902 0.015586482 -0.003783867 -0.007348756 0.006836744
00000000: 87ae 49bc f8fa c03c 1b6e 67bc 0bfd a83b
00000010: a9b1 b5bc fbb7 023d c784 21bc 5d75 d73b
00000020: 9d14 43bb 7d85 efbc e593 b33b d79c de3c
00000030: 9eb4 a8bc 7976 993b d6d9 90bb 7777 a73b
00000040: 3418 153d 6ece e73c 4306 a23a 5e01 353c
00000050: c5f5 dc3b 006f b73c 7b53 63bc 392a 11bd
00000060: 7bf1 08bc efca e63c f57e da3b 5991 ee3a
00000070: 0575 2a3d 9d18 2b3c 42b0 353c f229 6abb
00000080: cb1c 08bb 3d3a f1bc 6b50 97bc 5200 5a3b
00000090: 8285 a5bc 66e3 bdbc 7bf5 f0bb f42e 21bc
000000a0: 629f ba3a afd6 f0bc 6495 99bc 9762 ccba
000000b0: 680f 02bd 83de 89bb 2be6 d33b 39ff 0a3d
000000c0: 72e1 23ba c303 95ba 0768 adbb 9b25 bcbc
000000d0: b8a7 b63c cee0 f13c 9d43 49bd 9db9 0dbd
000000e0: 09f5 c53b 7247 9ebc a694 3fbd 2b30 f0ba
000000f0: 725e 7f3c c1fa 77bb d5cd f0bb c406 e03b

model.encoder.embedder.input_embedding.1.bias f4 [64]
9.166881e-05 0.00027543586 -5.9475396e-06 1.0877208e-05 0.0001646176 0.00017920522 0.0003339385 0.00039319354
0.00026662392 0.00023980589 0.00048823832 -0.00011403522 -0.00014699933 -0.0004798715 -0.00018420207 -0.0003634181
-0.00027533012 0.00042309513 -0.00058278826 -0.00035105777 3.050715e-05 -1.2243241e-05 0.0005492203 -0.00022701974
-0.00019607662 0.00033429696 -0.00049411913 0.00032116967 0.00022402225 7.586073e-05 0.00013099227 -0.000103657614
-0.00012797763 -0.000392313 -2.2912614e-05 -0.00024162229 3.5358695e-05 0.00033277442 -0.000176935 0.00038128134
-0.0006558049 -2.5917018e-07 0.00024103845 -0.00018487671 8.370261e-05 0.00046200363 -0.0010289047 -0.0001904547
-0.0009183656 0.00027486446 0.00020212967 -6.0821665e-05 -8.430343e-05 0.00050197507 0.00060944265 0.00018624199
7.448944e-05 -0.00038295874 -0.00015628421 0.00046040173 -0.0002515363 -0.00049967156 0.00057110225 0.00015050176
00000000: 513e c038 6068 9039 fa90 c7b6 417d 3637
00000010: 339d 2c39 09e9 3b39 7714 af39 8b25 ce39
00000020: a8c9 8b39 6774 7b39 3dfa ff39 3126 efb8
00000030: d523 1ab9 4397 fbb9 5e26 41b9 2789 beb9
00000040: 2f5a 90b9 ded2 dd39 42c6 18ba 2d0e b8b9
00000050: 9be9 ff37 5268 4db7 8df9 0f3a 260c 6eb9
00000060: eb99 4db9 9444 af39 c687 01ba aa62 a839
00000070: 84e7 6a39 6b17 9f38 f85a 0939 c262 d9b8
00000080: bc31 06b9 5caf cdb9 7734 c0b7 fd5b 7db9
00000090: 1c4e 1438 3a78 ae39 a187 39b9 b7e6 c739
000000a0: 52ea 2bba 1424 8bb4 44bf 7c39 77db 41b9
000000b0: 7f89 af38 1439 f239 50dc 86ba cbb4 47b9
000000c0: 79be 70ba af1b 9039 c5f2 5339 c41a 7fb8
000000d0: 0fcc b0b8 fa96 033a 01c3 1f3a f449 4339
000000e0: 3737 9c38 dac7 c8b9 39e0 23b9 1362 f139
000000f0: a1e0 83b9 64fc 02ba 06b6 153a 02d0 1d39

model.encoder.embedder.input_embedding.2.weight f4 [64, 1]
0.024425767 0.016550688 0.01006171 0.024749618 -0.024734937 -0.015270826 0.014180406 -0.0028154107
-0.017410498 0.016961774 -0.0007143645 -0.010164825 -0.0013410951 -0.0072939824 -0.011579012 -0.025257831
0.01991473 -0.02535679 0.026429988 0.007984753 -0.011168979 0.021376412 0.02016949 0.0044190236
0.018069021 -0.0032316651 0.023104655 0.015149218 -0.0025301226 -0.010562947 -0.02487307 0.054238554
0.056076616 0.007456749 -0.0030106637 -0.026827333 -0.004723019 -0.05351023 0.0141207315 -0.01365037
0.0067860004 -0.005894434 0.02192187 0.01361041 -0.0080776885 0.0012027879 -0.027350381 0.029901987
-0.002634831 0.0071848063 -0.008656623 0.034255113 -0.01117803 0.0092611 -0.0012189797 0.0070263925
0.0021131586 -0.03602557 -0.0025271762 0.008524361 0.006923605 -0.02569969 -0.011038228 -0.015991986
00000000: 8c18 c83c 4f95 873c dfd9 243c b6bf ca3c
00000010: eca0 cabc 7d32 7abc ef54 683c c182 38bb
00000020: 76a0 8ebc 6bf3 8a3c 3144 3bba 5e8a 26bc
00000030: afc7 afba 5c02 efbb e5b5 3dbc 83e9 cebc
00000040: 3724 a33c 0bb9 cfbc b483 d83c 7bd2 023c
00000050: 18fe 36bc 961d af3c 7c3a a53c 75cd 903b
00000060: 7c05 943c 58ca 53bb f945 bd3c 6d34 783c
00000070: 6ad0 25bb 3610 2dbc 9cc2 cbbc 3f29 5e3d
00000080: 98b0 653d bf57 f43b 8e4e 45bb ffc4 dbbc
00000090: 8ec3 9abb 8b2d 5bbd a45a 673c cda5 5fbc
000000a0: 195d de3b 1926 c1bb 7e95 b33c 32fe 5e3c
000000b0: 4858 04bc dda6 9d3a e80d e0bc 03f5 f43c
000000c0: 21ad 2cbb 866e eb3b 82d4 0dbc 174f 0c3d
000000d0: 0e24 37bc debb 173c 2cc6 9fba a73d e63b
000000e0: eb7c 0a3b 8c8f 13bd fb9e 25bb c3a9 0b3c
000000f0: 69df e23b 2888 d2bc afd9 34bc a001 83bc

model.encoder.embedder.input_embedding.2.bias f4 [64]
-0.0009362618 0.00046825397 0.0017806336 -0.00035136056 -0.00060770893 -0.001085885 0.0010325265 -0.0002932346
-3.1407758e-06 -0.00014687718 -0.00096005 0.00054941775 1.668057e-05 4.074368e-05 0.00081353536 -0.00031526794
8.880641e-05 0.00065424124 0.00032913414 7.33231e-05 -0.0005591499 0.0010033692 -0.00010562959 -0.00016174339
-0.0005507254 0.00013399929 -0.00083668495 1.6094269e-05 -0.00028766313 -0.0006647457 -0.00023730891 -0.00061250955
-0.00058683904 0.00091922894 0.0003093133 0.00026549137 0.0010746801 -0.00041148305 -2.2750603e-05 9.3609495e-05
-0.0007910484 0.000100349076 -7.603097e-05 0.00067731895 -0.00040424612 -0.00032586185 0.00019458028 0.0013068968
-0.00020285288 8.8417495e-05 9.1091286e-05 0.0013576539 0.0006126381 0.00032839135 0.00026841604 -0.0001743599
0.0003790547 0.0003156613 0.00017792138 -0.00044639144 0.0008734603 -0.0005580999 -0.00037493804 0.0005660301
00000000: 776f 75ba fc7f f539 2664 e93a d136 b8b9
00000010: a84e 1fba 4154 8eba d755 873a 48bd 99b9
00000020: 1ec6 52b6 0b03 1ab9 ddab 7bba cd06 103a
00000030: 40ed 8b37 31e4 2a38 6f43 553a 8c4a a5b9
00000040: 943d ba38 6381 2b3a a38f ac39 0ac5 9938
00000050: ea93 12ba 7c83 833a 7485 ddb8 a999 29b9
00000060: 8e5e 10ba 2982 0c39 fa54 5bba 2e02 8737
00000070: 7ed1 96b9 5442 2eba 20d6 78b9 d290 20ba
00000080: 1ad6 19ba 69f8 703a 542b a239 a631 8b39
00000090: 48dc 8c3a 52bc d7b9 8cd8 beb7 3750 c438
000000a0: 5c5e 4fba 8072 d238 d172 9fb8 1b8e 313a
000000b0: fff0 d3b9 70d8 aab9 3f08 4c39 2e4c ab3a
000000c0: e8b4 54b9 c86c b938 4308 bf38 4ef3 b13a
000000d0: 7299 203a f12b ac39 31ba 8c39 61d4 36b9
000000e0: dcbb c639 587f a539 6890 3a39 a509 eab9
000000f0: eef8 643a 734d 12ba 5593 c4b9 a361 143a

model.encoder.embedder.input_embedding.3.weight f4 [64, 1]
-0.02028285 0.026399244 0.0078103524 0.03758208 -0.0005244111 -0.013625953 0.012590473 -0.011590741
0.0017407328 -0.0128955385 0.021011602 0.036026202 0.004091486 0.00934435 0.017668152 -0.006028979
0.006298395 -0.0013766849 -0.007989668 -0.001911936 -0.002371343 0.028187133 -0.04368983 0.013145118
-0.004233612 -0.032078717 -0.0052161263 0.0129673565 0.035228133 -0.04642402 -0.014543286 0.0045347745
0.008831607 -0.04954732 -0.02049113 0.03460949 -0.004544616 -0.001736395 -0.010458258 0.017766353
8.6917775e-05 0.02652558 0.0017226666 0.045423757 -0.007667091 0.009952604 0.003392952 0.0135744745
0.008791598 -0.0063705747 -0.0501781 -0.04844392 6.309524e-05 0.0046741846 -0.007257344 0.008451836
0.022184491 -0.028378092 -0.0040096086 -0.00964857 0.010769737 -0.015614297 -0.011465695 -0.010261509
00000000: 3828 a6bc 3a43 d83c fced ff3b abef 193d
00000010: a278 09ba 643f 5fbc 4548 4e3c 17e7 3dbc
00000020: 4d29 e43a cf47 53bc 8620 ac3c 3690 133d
00000030: df11 863b 0b19 193c cdbc 903c be8e c5bb
00000040: c462 ce3b e171 b4ba 19e7 02bc ed99 faba
00000050: 8968 1bbb b4e8 e63c 1bf4 32bd 9f5e 573c
00000060: 1dba 8abb f964 03bd 0aec aabb 0975 543c
00000070: 604b 103d 1d27 3ebd f646 6ebc 7298 943b
00000080: 72b2 103c 21f2 4abd 04dd a7bc aec2 0d3d
00000090: 01eb 94bb bf97 e3ba 1d59 2bbc be8a 913c
000000a0: a047 b638 2c4c d93c 19cb e13a 430e 3a3d
000000b0: 393c fbbb 3f10 233c 4a5c 5e3b 7967 5e3c
000000c0: a20a 103c 41c0 d0bb 8d87 4dbd 226d 46bd
000000d0: 0052 8438 e729 993b 04cf edbb 9279 0a3c
000000e0: 40bc b53c 2c79 e8bc 0963 83bb 0915 1ebc
000000f0: 8d73 303c 1cd3 7fbc 9cda 3bbc e31f 28bc

model.encoder.embedder.input_embedding.3.bias f4 [64]
-0.00040660214 -0.00021561781 0.0008271553 -0.00036125194 0.00036992435 2.5759342e-05 -0.00010251305 0.00035940178
0.00049433793 0.00011155015 0.00023861014 0.0005816851 0.0004912359 0.000784021 -0.00029348847 1.6387881e-05
0.0005010538 -2.2624272e-07 4.5931007e-05 -0.00014543775 0.00012168045 -0.000119729026 -7.4765094e-06 0.00057364994
0.0005544775 -0.00038537727 0.0004333194 -0.0005978208 0.000101353915 -0.0007088184 0.0001962985 -0.00080773205
-9.874207e-05 -0.0006014631 1.8511347e-06 0.00013433382 -0.00044712867 0.00041626446 -0.0004856018 -3.1925385e-05
0.00075999054 0.0005418373 0.00011721346 -0.00043551144 -7.3170586e-06 -0.00083083403 2.9249848e-05 0.00019368206
0.00043559266 3.234761e-05 0.00019649498 -0.0010512944 -0.0003785113 5.6005534e-05 9.456551e-05 -0.0005131052
0.00029407768 0.00019356661 -0.000470617 -0.00012441518 0.0002946793 -0.00095124723 -0.00033639942 -0.00026502705
00000000: 372d d5b9 7717 62b9 74d5 583a 6a66 bdb9
00000010: 68f2 c139 c415 d837 46fc d6b8 176e bc39
00000020: 7596 013a 08f0 e938 6c33 7a39 3a7c 183a
00000030: 49c6 003a c286 4d3a 5bdf 99b9 b578 8937
00000040: 2759 033a 20ed 72b4 0ba6 4038 a680 18b9
00000050: b22e ff38 0817 fbb8 bade fab6 ff60 163a
00000060: 5b5a 113a 760c cab9 252f e339 13b7 1cba
00000070: f88d d438 ffcf 39ba 7ad5 4d39 fbbd 53ba
00000080: bf13 cfb8 81ab 1dba 8174 f835 f6db 0c39
00000090: 986c eab9 123e da39 5f98 feb9 9fe7 05b8
000000a0: 1a3a 473a 160a 0e3a 7fd0 f538 5b55 e4b9
000000b0: 0e85 f5b6 54cc 59ba 925d f537 2217 4b39
000000c0: 4260 e439 fbac 0738 380a 4e39 96cb 89ba
000000d0: ed72 c6b9 7ce7 6a38 7951 c638 e881 06ba
000000e0: 702e 9a39 24f8 4a39 25bd f6b9 7275 02b9
000000f0: 307f 9a39 1f5d 79ba c45e b0b9 54f3 8ab9

model.encoder.embedder.input_embedding.4.weight f4 [64, 1]
0.023870297 0.010940776 -0.01440368 -0.0058404463 -0.0023581577 0.0077997213 0.0045035863 0.0066718827
-0.012945591 -0.0020746728 -0.011935597 -0.0036807677 -0.00441425 -0.027021583 0.0182752 0.031928606
-0.029146759 -0.023180937 -0.012189321 0.033497974 0.004890776 -0.005034208 0.0084554935 0.010161249
-0.036186814 -0.011064072 0.0068637202 -0.0066141505 -0.025134409 0.0028431898 -0.003758675 -0.051747438
-0.010338527 -0.028428504 -0.025355145 0.012549811 0.046693817 -0.0042715655 -0.02134464 -0.0025364072
0.032971483 -0.008611984 0.0018262449 -0.034110487 0.012269794 0.04550414 0.0049114693 0.0073831114
0.0043092333 -0.01679856 -0.008609668 -0.022960901 0.00805246 -0.02667356 0.007320893 -0.009822326
0.00990916 -0.003065729 0.053703096 0.007582563 -0.012602748 -0.0004346523 0.023507303 0.05255328
00000000: a48b c33c f140 333c 6afd 6bbc 3761 bfbb
00000010: 528b 1abb ce94 ff3b d292 933b cf9f da3b
00000020: be19 54bc 3cf7 07bb 868d 43bc 0939 71bb
00000030: 6aa5 90bb 5e5c ddbc dfb5 953c 92c7 023d
00000040: 2fc5 eebc f3e5 bdbc b8b5 47bc 2c35 093d
00000050: cd42 a03b fff5 a4bb e988 0a3c 5e7b 263c
00000060: a038 14bd 1546 35bc 0fe9 e03b 84bb d8bb
00000070: ade6 cdbc cf54 3a3b 1a54 76bb 1ff5 53bd
00000080: ed62 29bc e5e2 e8bc 98b5 cfbc b99d 4d3c
00000090: 0442 3f3d 7df8 8bbb f4da aebc da39 26bb
000000a0: 1b0d 073d 4719 0dbc 9c5e ef3a 70b7 0bbd
000000b0: 3f07 493c 8d62 3a3d 64f0 a03b 07ee f13b
000000c0: 7834 8d3b 229d 89bc 910f 0dbc 8018 bcbc
000000d0: 77ee 033c 8282 dabc 1ae4 ef3b d2ed 20bc
000000e0: 085a 223c 66ea 48bb c7f7 5b3d 2677 f83b
000000f0: c27b 4ebc 0be2 e3b9 6392 c03c 1c42 573d

model.encoder.embedder.input_embedding.4.bias f4 [64]
-2.655265e-05 -5.666307e-05 -0.00040878137 0.00044319648 0.00044347855 0.0006524308 -0.00048332606 -0.00011785392
0.00046640367 -0.00023926672 0.00053593464 -0.0002821106 0.00029923936 0.00034179285 0.000918474 6.0312223e-06
-0.0008531327 -0.0008323707 -0.0006858977 -0.00049218594 0.0007531455 -0.000276962 0.00032974393 -0.00028441078
6.439499e-05 0.00094789494 0.0004905833 -4.1698768e-05 0.00043117238 0.0008439923 0.0002708725 0.0001848776
-0.00047806045 -0.000281054 0.0008762527 -0.0002196189 -3.1414802e-05 0.00010221587 0.00060656265 -0.00026324062
0.0008851519 -0.00045965 0.0001119826 -0.00040690968 0.000605045 0.001119043 -0.00089102995 -0.000667227
-0.0007484448 0.00010265058 0.0003411412 -0.00038729754 -0.0003577754 0.0007528226 4.5324155e-06 0.00072058657
-0.0010779916 -0.0014233568 -0.00023470257 -0.00024259413 -0.0006247448 4.582162e-06 0.00011302879 -0.000108861896
00000000: 62bd deb7 82a9 6db8 b551 d6b9 d35c e839
00000010: af82 e839 e407 2b3a ed66 fdb9 5728 f7b8
00000020: a487 f439 ace3 7ab9 f77d 0c3a 3ee8 93b9
00000030: 3ae3 9c39 a932 b339 bfc5 703a ce5f ca36
00000040: c4a4 5fba 7433 5aba d1cd 33ba 0a06 01ba
00000050: bd6e 453a 3635 91b9 7be1 ac39 f81c 95b9
00000060: cc0b 8738 277c 783a 7d9a 003a b6e5 2eb8
00000070: fa0e e239 5d3f 5d3a e403 8e39 b4db 4139
00000080: 30a4 fab9 6e5a 93b9 53b4 653a 8049 66b9
00000090: 63c3 03b8 ba5c d638 bb01 1f3a 8f03 8ab9
000000a0: 8a09 683a 2efd f0b9 33d8 ea38 7e56 d5b9
000000b0: e29b 1e3a daac 923a 0294 69ba d9e8 2eba
000000c0: 4833 44ba 1c46 d738 32db b239 320e cbb9
000000d0: cd93 bbb9 1259 453a 2715 9836 bfe5 3c3a
000000e0: 654b 8dba ee8f baba 7e1a 76b9 de60 7eb9
000000f0: eac5 23ba 79c0 9936 df09 ed38 c94c e4b8

model.encoder.embedder.input_embedding.5.weight f4 [64, 1]
-0.014083017 -0.021119008 0.0025971623 0.0034519804 0.022948695 0.032971308 0.02453934 -0.01580429
0.014865058 -0.021693436 -0.0148489745 0.022866582 -0.016629906 0.0065633203 -0.024112292 -0.030977836
-0.02166523 -0.011430856 0.037925668 0.028738616 0.002140294 -0.010273506 0.0066657015 -0.004491052
0.04237979 0.025828319 -0.015245488 0.027626464 -0.010412268 0.021532489 -0.019830797 -0.01893655
-0.01398715 0.015894929 0.0058964933 0.0035281975 0.05179422 0.035042748 -0.045309108 -0.0176928
0.023991607 -0.012657304 0.012497459 -0.0068630716 -0.010441442 -0.0067398194 0.006548366 0.005593214
-0.00023147285 -5.981749e-05 -0.03242416 0.006047681 0.02042683 0.046626326 -0.010845801 0.0014874884
-0.0077220034 -0.016221879 0.0066416324 -0.022826126 -0.019610874 0.038349953 0.0075493 0.004089279
00000000: 74bc 66bc c501 adbc 2735 2a3b 9f3a 623b
00000010: e7fe bb3c ec0c 073d ba06 c93c 0078 81bc
00000020: 928c 733c 6fb6 b1bc 1d49 73bc b352 bb3c
00000030: 713b 88bc 1f11 d73b 2487 c5bc 3bc5 fdbc
00000040: 487b b1bc 7c48 3bbc f257 1b3d 3f6d eb3c
00000050: 2d44 0c3b 3552 28bc f56b da3b ad29 93bb
00000060: 6e96 2d3d e995 d33c 36c8 79bc e550 e23c
00000070: 3898 2abc e764 b03c 3274 a2bc d320 9bbc
00000080: 5c2a 65bc 1536 823c 5f37 c13b 5539 673b
00000090: 2d26 543d fc88 0f3d 0b96 39bd 7ef0 90bc
000000a0: 0c8a c43c 9560 4fbc 24c2 4c3c 9ee3 e0bb
000000b0: 9512 2bbc b4d9 dcbb ad93 d63b 4847 b73b
000000c0: 85b7 72b9 8ae4 7ab8 32cf 04bd a02b c63b
000000d0: 2b56 a73c 3ffb 3e3d 96b2 31bc d4f7 c23a
000000e0: dc08 fdbb bfe3 84bc 0da2 d93b dbfd babc
000000f0: fca6 a0bc d714 1d3d 1e60 f73b 5cff 853b

model.encoder.embedder.input_embedding.5.bias f4 [64]
0.0002175268 0.000113394235 -0.00059485616 5.9005128e-05 0.0005524489 0.00040896953 0.0007585096 -0.00028370222
0.0014003614 -9.0682544e-05 0.00049715873 8.538105e-05 0.00020520689 -0.00037479048 -6.102065e-05 -0.0004640023
0.0002500313 -0.00027263677 -0.00050707563 0.00025356427 0.00013602767 -0.0007437735 -0.0004911306 0.00024220941
-0.0004349408 0.00045115428 -0.0003372779 -0.00022306507 -0.00038857828 0.0004523402 0.00018768154 0.00041986431
0.00014012487 0.000115972376 5.474755e-05 -0.0003217229 -2.1433392e-05 0.00035151505 0.00021918118 -0.0007033732
0.00015474351 -0.00094275846 -0.0001000935 0.0001634976 -0.00017793367 -0.00013028827 0.0006186861 0.00026787113
-0.00030487851 -0.00018117695 -0.0008338457 0.00048897177 0.0004079052 0.00014400131 0.00013443336 0.00043758276
-0.00020189799 -0.0012564961 0.00021069273 -0.0003541006 5.271653e-05 0.00019004224 -0.0007068804 -0.00072677154
00000000: e817 6439 11ce ed38 1ff0 1bba 467c 7738
00000010: 38d2 103a f66a d639 b8d6 463a debd 94b9
00000020: 558c b73a d22c beb8 c253 023a 9a0e b338
00000030: ce2c 5739 877f c4b9 6df0 7fb8 5645 f3b9
00000040: a216 8339 b0f0 8eb9 45ed 04ba d2f0 8439
00000050: a6a2 0e39 cbf9 42ba 37bf 00ba 98f9 7d39
00000060: c408 e4b9 e788 ec39 acd4 b0b9 93e6 69b9
00000070: 18ba cbb9 1328 ed39 61cc 4439 3c21 dc39
00000080: 7cee 1239 3236 f338 bca0 6538 ebac a8b9
00000090: dccb b3b7 8d4b b839 00d4 6539 9462 38ba
000000a0: a542 2239 7323 77ba 4ae9 d1b8 8e70 2b39
000000b0: b593 3ab9 fe9d 08b9 522f 223a 0e71 8c39
000000c0: 1ad8 9fb9 51fa 3db9 7096 5aba 572e 003a
000000d0: 1cdc d539 0fff 1639 aef6 0c39 5d6b e539
000000e0: 94b4 53b9 03b1 a4ba 66ed 5c39 94a6 b9b9
000000f0: f11b 5d38 1346 4739 f14d 39ba d084 3eba

model.encoder.embedder.input_embedding.6.weight f4 [64, 1]
-0.0039494424 -0.017541336 -0.04319224 -0.0138619365 -0.011644855 0.024979368 0.013534986 -0.02052785
-0.026420522 -0.030977573 0.011944497 0.0021573466 -0.02858584 0.0247074 0.032670375 -0.020241778
0.03393382 -0.01918481 -0.017453523 0.031467553 -0.0039730896 0.01877189 0.01658115 0.01997625
0.013011586 -0.0076041385 0.0005190497 0.04441367 -0.0136689 -0.01808665 0.037541542 0.028555712
-0.0012491454 0.0029346358 0.02066596 0.0017195098 -0.018554049 0.013758229 -0.003392252 -0.0038387228
0.029453944 0.0025665467 -0.004242594 0.017610276 -0.014570109 -0.008559136 -0.028716668 0.018088931
0.0116306925 0.013983575 0.0002567944 0.0021054693 -0.012477074 0.021748502 0.021017479 -0.00051115954
-0.0052789855 0.030442221 0.007426988 0.06457378 -0.029369157 -0.01722061 0.02257713 0.01741377
00000000: 536a 81bb d9b2 8fbc 59ea 30bd 2d1d 63bc
00000010: 10ca 3ebc 88a1 cc3c d9c1 5d3c 062a a8bc
00000020: da6f d8bc aec4 fdbc dab2 433c 4562 0d3b
00000030: da2c eabc 2c67 ca3c 5fd1 053d 16d2 a5bc
00000040: 30fe 0a3d 7629 9dbc b1fa 8ebc 1fe4 003d
00000050: b130 82bb 82c7 993c 31d5 873c 3ca5 a33c
00000060: 8c2e 553c 232c f9bb d610 083a 1ceb 353d
00000070: 86f3 5fbc 742a 94bc 29c5 193d abed e93c
00000080: 5dba a3ba 0553 403b a94b a93c 2d61 e13a
00000090: a9fe 97bc 326a 613c 8b50 5ebb 1593 7bbb
000000a0: 6649 f13c 8233 283b 7505 8bbb 6d43 903c
000000b0: 77b7 6ebc 9e3b 0cbc 383f ebbc 3d2f 943c
000000c0: a98e 3e3c 5d1b 653c 5ca2 8639 eafb 093b
000000d0: a46c 4cbc ea29 b23c d92c ac3c 56ff 05ba
000000e0: 57fb acbb f761 f93c 175e f33b 423f 843d
000000f0: 9697 f0bc 3d12 8dbc acf3 b83c 53a7 8e3c

model.encoder.embedder.input_embedding.6.bias f4 [64]
-0.00082407915 -0.0003686204 -0.00023129024 6.063232e-05 0.00021340174 0.00083500426 -0.0009547097 -0.00021902296
0.00031483563 -0.00011351212 -8.4635176e-05 0.0006207251 -2.3502157e-06 1.1090011e-05 0.0005944986 -0.0001562238
-0.00025179444 0.00054094964 0.00028613387 -0.0006755138 -9.457911e-06 0.0012327512 0.00011306036 -0.0001439726
-8.163729e-05 -0.00013813717 0.0006873046 0.00060197245 0.00069322594 0.0011412214 0.00032675365 -0.00060182496
-0.00027714286 -0.0005081373 0.000121981924 -0.00048713744 0.00093328184 -0.00016047273 -0.0005488393 4.673969e-06
-0.00056835153 -0.00062115636 0.00037932102 -0.00042374033 0.00026124815 -0.00037467232 -0.000113184615 -0.0003980554
-0.00012732494 -0.00030541446 -0.00022834302 -0.000283548 -0.00010608835 -0.000109245004 -0.00017314461 0.00038263504
0.00011380075 0.000613997 0.0007707497 -0.00023721081 -0.00048389813 0.00032741844 -9.891771e-05 0.0004547032
00000000: 0407 58ba 6543 c1b9 8086 72b9 754f 7e38
00000010: 98c4 5f39 30e4 5a3a 7c45 7aba 87a9 65b9
00000020: 8610 a539 5b0d eeb8 2a7e b1b8 28b8 223a
00000030: 66b8 1db6 3c0f 3a37 20d8 1b3a 02d0 23b9
00000040: 4703 84b9 84ce 0d3a 3d04 9639 f714 31ba
00000050: 6bad 1eb7 4494 a13a d21a ed38 5af7 16b9
00000060: b034 abb8 ead8 10b9 3b2c 343a b0cd 1d3a
00000070: 9bb9 353a 0995 953a 2250 ab39 cac3 1dba
00000080: 7c4d 91b9 8434 05ba 8cd0 ff38 7b66 ffb9
00000090: 7ca7 743a 9244 28b9 fbdf 0fba 17d5 9c36
000000a0: 6dfd 14ba 19d5 22ba 9bdf c639 7729 deb9
000000b0: 22f8 8839 ab6f c4b9 875d edb8 17b2 d0b9
000000c0: 8782 05b9 0920 a0b9 5d6f 6fb9 2ba9 94b9
000000d0: c07b deb8 771a e5b8 278e 35b9 689c c839
000000e0: 50a8 ee38 a4f4 203a 230c 4a3a cbbb 78b9
000000f0: b5b3 fdb9 5ca9 ab39 0b72 cfb8 3b65 ee39

model.encoder.embedder.input_embedding.7.weight f4 [64, 1]
0.016183857 0.02646954 -0.014169997 -0.028643142 -0.0034744337 0.0021132359 0.038470704 0.018714469
0.00974376 0.026179394 -0.031276874 -0.014128326 0.0014624767 -0.006877288 0.027372316 -0.013324081
-0.006895121 -0.0014213498 0.042575307 -0.011803475 0.00613151 -0.0030072264 0.017941173 -0.025833646
-0.012276491 -0.01543442 0.033076532 0.023313915 -0.012631443 0.0086043235 -0.036396828 -0.020842656
0.0056001185 0.015795302 -0.008253463 -0.012513937 -0.0022874544 0.015268844 0.013865257 -0.015184738
0.00318977 0.009561424 -0.0024793833 -0.005266678 -0.017005153 -0.010809206 0.015761098 0.0014558503
-0.011312282 -0.014167611 -0.0014244479 -0.019183116 0.0026131948 -0.0063158446 -0.030301573 -0.0028147975
-0.021398297 0.007271581 -0.014329439 -0.02090173 -0.033158876 0.0025965362 -0.0142746065 -0.00692357
00000000: 0294 843c a6d6 d83c 4629 68bc 06a5 eabc
00000010: 53b3 63bb 377e 0a3b 7593 1d3d 164f 993c
00000020: 4ba4 1f3c 2b76 d63c 2e1c 00bd 7f7a 67bc
00000030: 93b0 bf3a e05a e1bb e83b e03c 3f4d 5abc
00000040: 78f0 e1bb 964c baba 7263 2e3d 5d63 41bc
00000050: d5ea c83b e314 45bb 5ef9 923c 15a1 d3bc
00000060: 5623 49bc a6e0 7cbc 427b 073d d3fc be3c
00000070: 1df4 4ebc 26f9 0c3c d714 15bd 38be aabc
00000080: 3381 b73b 2665 813c 8839 07bc 4207 4dbc
00000090: 1ee9 15bb 2c2a 7a3c 1a2b 633c 68c9 78bc
000000a0: 760b 513b 85a7 1c3c 267d 22bb 1994 acbb
000000b0: 644e 8bbc 1919 31bc 6b1d 813c 3bd2 be3a
000000c0: 2657 39bc 441f 68bc 8ab4 baba e925 9dbc
000000d0: 2242 2b3b 25f5 cebb 013b f8bc 7778 38bb
000000e0: 7b4b afbc 7146 ee3b 06c6 6abc 1b3a abbc
000000f0: 9ad1 07bd a62a 2a3b 0ae0 69bc 1ddf e2bb

model.encoder.embedder.input_embedding.7.bias f4 [64]
-6.538191e-05 -0.0005520583 -6.923365e-05 -0.00035593566 0.00031243736 0.00012921038 0.00073167466 0.00022146148
-0.00010797421 5.3642812e-05 0.0013550097 -0.00089209125 -5.917149e-05 3.7458396e-06 -0.00056737993 0.00084331917
-0.0011090608 -0.00023579589 0.0001680266 -0.0003823654 0.00027099875 -0.0006881193 0.00079771096 -0.000100341415
-0.00049902376 -0.000356165 0.00091964187 0.0004436465 0.0002322746 0.00033718633 -8.441021e-05 7.732987e-05
-0.00086839154 -0.0001525593 0.00015991411 0.00040117226 -0.00022116487 0.00040318034 0.00024222772 0.0003698776
0.00011880926 -0.00018171359 -2.051509e-05 -0.00044254138 0.0005218097 5.388178e-05 -0.00015400338 0.00070222403
-0.00030773738 -0.00042634248 0.0005429376 -8.534885e-06 0.00013396332 0.0004187278 -5.395686e-05 -0.00032767278
-0.00019748296 -0.00012072017 0.00020002054 -0.0004545221 0.0006646671 -0.00038299855 0.00033255204 -0.0009601609
00000000: a51d 89b8 01b8 10ba 8831 91b8 e09c bab9
00000010: a2ce a339 a67c 0739 dbcd 3f3a 1d38 6839
00000020: 3670 e2b8 88fe 6038 959a b13a 3bdb 69ba
00000030: e72e 78b8 0961 7b36 39bc 14ba 3112 5d3a
00000040: e85d 91ba fa3f 77b9 4c30 3039 3778 c8b9
00000050: d614 8e39 e862 34ba 7a1d 513a 636e d2b8
00000060: ebd0 02ba a8bb bab9 1f14 713a 3a99 e839
00000070: bd8e 7339 62c8 b039 6305 b1b8 282c a238
00000080: c5a4 63ba 53f8 1fb9 9eae 2739 6e54 d239
00000090: 7ee8 67b9 f361 d339 82fe 7d39 22ec c139
000000a0: 3c29 f938 5f8a 3eb9 d217 acb7 e604 e8b9
000000b0: 0eca 083a 1fff 6138 f87b 21b9 7515 383a
000000c0: d057 a1b9 b886 dfb9 ed53 0e3a 0d31 0fb7
000000d0: 8178 0c39 b288 db39 bd4f 62b8 7fcb abb9
000000e0: 6e13 4fb9 262b fdb8 9bbc 5139 ec4c eeb9
000000f0: 0e3d 2e3a 32cd c8b9 615a ae39 4fb3 7bba

model.encoder.embedder.input_embedding.8.weight f4 [64, 1]
-0.027656646 -0.044752058 0.04432936 -0.010278483 -0.012637295 0.0075488314 -0.010673901 0.024296226
-0.02644831 0.0050830524 0.00058880524 -0.014959895 -0.006000956 -0.0020712027 -0.04741195 -0.047768205
-0.016327012 0.010833723 0.03416352 0.036651067 -0.006004023 0.037034214 -0.007397409 -0.0035527495
0.0311084 0.0053534107 -0.00029757986 -0.00023006668 0.027004622 0.022297896 0.04402876 0.010675704
0.022632705 -0.0030892338 0.015695702 0.014485252 -0.015171959 0.018230671 0.014626125 -0.011791079
0.0012420746 0.028415482 0.01205463 -0.014152792 -0.0076258443 -0.021423576 0.0012670571 0.016194044
0.024447436 -0.057394493 0.03474901 0.013787108 -0.021906583 0.008972066 -0.00076528144 0.05776641
-0.0076240827 -0.026297627 0.019084523 0.013327944 0.036853503 0.01789713 0.014663757 0.009796146
00000000: 3190 e2bc ef4d 37bd b492 353d 1567 28bc
00000010: a80c 4fbc 305c f73b 96e1 2ebc e108 c73c
00000020: 20aa d8bc bc8f a63b 0d5a 1a3a 591a 75bc
00000030: aba3 c4bb 04bd 07bb 0833 42bd 98a8 43bd
00000040: 3ac0 85bc ed7f 313c 0cef 0b3d 6e1f 163d
00000050: 65bd c4bb 30b1 173d f765 f2bb 3fd5 68bb
00000060: 0bd7 fe3c aa6b af3b 7e04 9cb9 0e3e 71b9
00000070: cc38 dd3c 14aa b63c 8057 343d 26e9 2e3c
00000080: 3968 b93c be74 4abb 4694 803c 8d53 6d3c
00000090: cf93 78bc 7d58 953c 6aa2 6f3c 5f2f 41bc
000000a0: 1ccd a23a 96c7 e83c c880 453c 1de1 67bc
000000b0: 38e2 f9bb 7f80 afbc 6213 a63a 5fa9 843c
000000c0: fd45 c83c 7d16 6bbd fa54 0e3d 52e3 613c
000000d0: 6f75 b3bc 93ff 123c 2b9d 48ba 799c 6c3d
000000e0: 71d3 f9bb 1f6e d7bc 2557 9c3c 735d 5a3c
000000f0: b3f3 163d 019d 923c 4140 703c 0480 203c

model.encoder.embedder.input_embedding.8.bias f4 [64]
-0.00043816832 -0.00045857072 8.167827e-05 -0.0006874783 0.0004910459 -3.6614925e-05 0.00019877587 0.00040457273
0.00048256284 0.0002337947 -0.000111451656 0.0003753101 0.00012826227 -9.300756e-05 -4.5229526e-06 -3.9461847e-05
-0.00016593834 2.0215548e-05 -0.00022213586 -0.0005713856 -0.0006733634 7.1047057e-06 0.00034937004 0.00014482993
0.00014440657 -9.182848e-05 -2.4512796e-05 -2.8706301e-05 -5.1966694e-05 0.00024899252 0.0003716776 -0.00018733316
-0.000119295335 8.2526116e-05 0.00078038475 -2.0189262e-05 0.00042776324 -0.00029857008 4.4030236e-05 0.00024972094
4.5616516e-06 -0.0012079816 0.00022982052 0.0006831995 -0.00016980727 -0.00025252986 -8.579666e-05 0.0003401788
-0.00044842175 0.00052153773 -0.00017031684 0.0010349047 3.8443544e-05 -0.00024632583 -2.4723895e-05 -0.00020079264
-3.1910404e-05 -0.00025500538 -0.00011434221 -0.00046224383 0.00033575486 0.0001202134 7.297903e-05 -0.0004942825
00000000: f5b9 e5b9 526c f0b9 b04a ab38 e337 34ba
00000010: 88b9 003a fa92 19b8 7e6e 5039 d51c d439
00000020: 7d00 fd39 c926 7539 27bb e9b8 45c5 c439
00000030: 247e 0639 0e0d c3b8 dec3 97b6 d683 25b8
00000040: bcff 2db9 8f94 a937 24ed 68b9 0ac9 15ba
00000050: a784 30ba f564 ee36 a72b b739 7ddd 1739
00000060: d86b 1739 0a94 c0b8 d4a0 cdb7 50ce f0b7
00000070: d0f6 59b8 368b 8239 b9dd c239 dd6e 44b9
00000080: 322e fab8 df11 ad38 bc92 4c3a 1c5c a9b7
00000090: 6945 e039 6689 9cb9 1bad 3838 faec 8239
000000a0: 4a10 9936 2355 9eba fafb 7039 be18 333a
000000b0: 4b0e 32b9 fc65 84b9 bbed b3b8 075a b239
000000c0: 261a ebb9 ceb7 083a 1497 32b9 a4a5 873a
000000d0: 713e 2138 4b25 81b9 2966 cfb7 dd8b 52b9
000000e0: 89d7 05b8 3eb2 85b9 02cb efb8 5159 f2b9
000000f0: 4108 b039 141b fc38 520c 9938 bd92 01ba

model.encoder.embedder.input_embedding.9.weight f4 [64, 1]
0.006841401 -0.010098357 0.0011378534 -0.0039436705 0.029333238 0.0089166695 0.0054601496 0.010852494
0.011931334 0.008511058 0.0008589481 -0.0076155323 -0.013179839 -0.011453427 -0.018238354 0.015347741
0.011372849 -0.0048162523 0.012469111 -0.007880099 -0.016340273 -0.0076051624 -0.012294714 0.007819325
0.012826188 -0.0032662665 0.023585783 -0.007667638 0.010881132 -0.006347187 -0.020260895 0.0014246341
-0.00073904544 0.0004770545 0.00051927334 0.00035262742 -0.027453309 0.028240133 0.0012242434 0.016348308
-0.01761074 0.0016211002 -0.004105783 -0.037155434 0.003479642 -0.040812436 -0.007851723 -0.017924996
0.03197088 -0.04262208 -0.034026355 -0.016477944 0.011980038 -0.004950476 -0.021687966 -0.018246382
0.009677337 -0.03938045 0.023952296 -0.01777614 0.015667766 -0.004365072 0.027524196 0.01782524
00000000: d52d e03b 9473 25bc 0624 953a e839 81bb
00000010: 424c f03c 3917 123c 0eeb b23b a9ce 313c
00000020: a47b 433c f771 0b3c 082b 613a b78b f9bb
00000030: 40f0 57bc 28a7 3bbc 9a68 95bc 1775 7b3c
00000040: 3055 3a3c a7d1 9dbb 3e4b 4c3c 881b 01bc
00000050: 09dc 85bc ba34 f9bb c56f 49bc a01c 003c
00000060: ee24 523c dc0e 56bb f936 c13c cf40 fbbb
00000070: c746 323c 10fc cfbb 2dfa a5bc caba ba3a
00000080: 80bc 41ba 2c1d fa39 d81f 083a dae0 b839
00000090: c3e5 e0bc da57 e73c cb76 a03a e3ec 853c
000000a0: 6644 90bc 197b d43a ce89 86bb 4c30 18bd
000000b0: b50a 643b f12a 27bd 83a4 00bc 71d7 92bc
000000c0: e6f3 023d 7d94 2ebd 385f 0bbd c1fc 86bc
000000d0: ec47 443c 9a37 a2bb f6aa b1bc 7079 95bc
000000e0: b18d 1e3c 654d 21bd 9b37 c43c 449f 91bc
000000f0: b059 803c e108 8fbb 6c7a e13c 3d06 923c

model.encoder.embedder.input_embedding.9.bias f4 [64]
-0.0003066616 0.00033194246 -0.0004163352 0.00070172636 -0.00047257976 -0.0006760527 -0.00020941958 -0.00018931627
9.823851e-05 0.00037809246 -0.00021811308 -9.0338486e-05 -0.0010849962 0.00085542107 -0.0013921658 -0.00052280043
-0.0006367642 0.00018221617 0.00035428457 0.00010079431 0.00015888213 0.0006258884 0.00039669996 -0.00034258084
6.2022045e-05 -0.00016467783 0.00014600942 -0.00018646246 0.00032198854 -0.0006708405 0.0006383082 -0.00022757714
-0.00024820183 0.00029527213 -6.0551583e-06 -2.8006105e-05 0.00023987584 -0.00022609798 -0.0001339751 0.000162364
-0.00038102188 -6.4466505e-05 0.00033595902 0.0004886353 0.00022526729 0.0004338045 0.00026256908 0.0005337631
-0.0002793939 0.0002058324 0.00024918796 -1.0474741e-05 -8.351035e-05 -0.0004251288 -1.926318e-05 0.00066466763
0.0013535228 0.0005637568 -0.00032574154 0.00018306961 0.00025304683 0.00042148953 -0.00021271227 -0.00011446393
00000000: 6cc7 a0b9 9008 ae39 9147 dab9 0ff4 373a
00000010: 95c4 f7b9 2139 31ba a497 5bb9 3383 46b9
00000020: 6605 ce38 b63a c639 49b5 64b9 1b74 bdb8
00000030: 6e36 8eba 563e 603a 5579 b6ba 8b0c 09ba
00000040: 86ec 26ba 4811 3f39 45bf b939 8861 d338
00000050: 9999 2639 a912 243a 2bfc cf39 6c9c b3b9
00000060: d511 8238 5ead 2cb9 1b1a 1939 2385 43b9
00000070: 92d0 a839 58db 2fba 2354 273a c6a1 6eb9
00000080: 1621 82b9 c1ce 9a39 6a2d cbb6 a7ee eab7
00000090: 2e87 7b39 b714 6db9 ab7b 0cb9 4140 2a39
000000a0: e4c3 c7b9 3132 87b8 a823 b039 c317 003a
000000b0: ba35 6c39 4170 e339 6da9 8939 3cec 0b3a
000000c0: 9d7b 92b9 b7d4 5739 71a5 8239 acbc 2fb7
000000d0: 4722 afb8 d2e3 deb9 5d97 a1b7 173d 2e3a
000000e0: b068 b13a 14c9 133a 4ac8 aab9 60f6 3f39
000000f0: 5fab 8439 5efb dc39 840b 5fb9 5b0c f0b8

model.encoder.embedder.input_embedding.10.weight f4 [64, 1]
0.021176787 0.010263836 0.017692056 0.014809246 -0.022998663 -0.021211894 -0.015427899 -0.021612924
0.016395675 0.013452624 -0.0042244317 0.016753875 0.0017876948 0.008726151 -0.01281267 -0.012313215
-0.01190503 -0.004347 0.0019842603 0.00015305371 0.02638342 -0.0049438453 -0.0062594316 -0.0026236144
-0.017204754 0.005634693 0.031128068 0.0043798503 -0.027363582 -0.0058199656 -0.00032148883 0.02499839
-0.0081031965 0.023203138 0.027238838 0.0038467709 -0.014201471 0.012514149 -0.006573736 0.032047965
-0.017916376 0.0028982293 0.02174902 0.008336015 -0.0377469 -0.029392246 0.038115904 0.011696871
-0.013708683 -0.008833874 0.008815225 0.012957679 0.043850694 -0.018200628 -0.014827753 -0.0034729615
0.025401255 0.014704349 -0.015337399 0.006256449 0.0035586306 -0.029583497 -0.018034102 -0.0018582753
00000000: f17a ad3c a629 283c eeee 903c 7ba2 723c
00000010: b167 bcbc 91c4 adbc 4cc5 7cbc 960d b1bc
00000020: 3950 863c 6568 5c3c 1a6d 8abb 6c3f 893c
00000030: 1551 ea3a 21f8 0e3c 3cec 51bc 5ebd 49bc
00000040: 510d 43bc 4771 8ebb 5d0a 023b 0b7d 2039
00000050: 0b22 d83c fbff a1bb eb1b cdbb f2f0 2bbb
00000060: fcf0 8cbc 3ba3 b83b 4a00 ff3c d984 8f3b
00000070: 9729 e0bc 69b5 bebb 808d a8b9 6cc9 cc3c
00000080: 45c3 04bc 8214 be3c fc23 df3c 1b1a 7c3b
00000090: 49ad 68bc 2508 4d3c 7f68 d7bb ba44 033d
000000a0: 5dc5 92bc 38f0 3d3b 002b b23c c893 083c
000000b0: 7e9c 1abd 02c8 f0bc 6c1f 1c3d 3ca4 3f3c
000000c0: 629a 60bc f4bb 10bc bc6d 103c 724c 543c
000000d0: c99c 333d 7c19 95bc 1bf0 72bc a09a 63bb
000000e0: 4b16 d03c 83ea 703c b749 7bbc e602 cd3b
000000f0: ea37 693b 1759 f2bc 41bc 93bc 5f91 f3ba

model.encoder.embedder.input_embedding.10.bias f4 [64]
0.00012529778 -3.0091769e-05 0.0005091617 0.00012462979 -4.5672597e-05 -0.00036127996 -0.00040578013 -0.0009905183
-0.0011596299 0.00014448306 8.9559406e-05 0.00022129407 -9.247496e-05 -0.00033558713 0.00027579235 0.00025967948
0.0003558196 -4.274711e-05 -4.0443705e-05 -0.0013316455 -0.0004883271 0.0003499787 0.000117387186 0.00019082401
0.0005288387 -0.00032793978 0.00038471134 0.0008602963 4.3277094e-05 -0.00058569043 0.00028864 0.0007375027
-0.00040899395 -9.576409e-05 0.00017839806 -0.0008180077 0.00053299783 6.4732058e-06 -0.00011651467 0.00020066978
-0.0001113516 0.00046604767 0.00022159678 0.00015609164 8.2495235e-06 -0.00023379471 0.00040370016 0.00033663405
0.0003919303 -1.9128312e-05 0.0002053745 -0.00063784525 -0.00033058206 -0.0001351212 0.000109644556 -0.0007745419
0.00036406153 0.0008400364 5.8925874e-05 -0.0005166619 0.000117097 -0.0007779213 0.0005107185 -0.00024240465
00000000: 5e62 0339 956d fcb7 4379 053a 0eaf 0239
00000010: 9490 3fb8 2d6a bdb9 e3be d4b9 47d4 81ba
00000020: b9fe 97ba 6080 1739 d7d1 bb38 2d0b 6839
00000030: 1eef c1b8 bef1 afb9 3998 9039 9725 8839
00000040: 4c8d ba39 5c4b 33b8 19a2 29b8 9c8a aeba
00000050: 1403 00ba 597d b739 c42d f638 ee17 4839
00000060: c4a1 0a3a 55ef abb9 15b3 c939 8285 613a
00000070: 6d84 3538 0589 19ba 9b54 9739 f854 413a
00000080: 3d6e d6b9 f4d4 c8b8 5d10 3b39 916f 56ba
00000090: e1b8 0b3a 6a34 d936 5659 f4b8 e26a 5239
000000a0: 6f85 e9b8 dc57 f439 6f5c 6839 88ac 2339
000000b0: 6f67 0a37 ca26 75b9 b8a7 d339 427e b039
000000c0: ff7b cd39 bd75 a0b7 cc59 5739 1235 27ba
000000d0: f951 adb9 52af 0db9 f9f0 e538 a10a 4bba
000000e0: 83df be39 e335 5c3a 2d27 7738 9870 07ba
000000f0: f991 f538 6aed 4bba bde1 053a 012e 7eb9

model.encoder.embedder.input_embedding.11.weight f4 [64, 1]
0.011307797 0.018879965 -0.016518813 -0.024087176 0.002913627 0.009469983 -0.017427655 -0.009348945
0.016651355 -0.020865642 0.012223503 -0.014460695 -0.0013316723 0.015719289 -0.00026186355 0.03341412
0.053827923 -0.01998662 -0.03329563 -0.029871797 0.013360721 -0.012429055 -0.030741211 0.015911307
-0.016344216 -0.013625311 0.018671064 0.008904618 0.013569658 -0.011335535 -0.019316144 0.03224448
-0.017658675 -0.0089940205 0.006265868 -0.00729003 0.032690886 0.00075995835 0.0069692917 0.005586457
0.021965995 -0.033824246 0.038935088 0.0075467173 0.0399684 -0.03663044 -0.009894403 -0.010211027
-0.00920512 -0.0044308538 0.016920216 0.007184433 0.01161351 -0.03991488 -0.00083200005 -0.01080682
-0.016097484 0.014314006 -0.044712458 0.0012191511 0.013301447 0.0021706664 -0.030158458 0.025712324
00000000: 5744 393c 28aa 9a3c 7652 87bc 7852 c5bc
00000010: 8df2 3e3b fd27 1b3c 71c4 8ebc 512c 19bc
00000020: 6c68 883c 6cee aabc 1645 483c 8dec 6cbc
00000030: 828b aeba bdc5 803c bb4a 89b9 3fdd 083d
00000040: ab7a 5c3d fbba a3bc 0061 08bd b3b5 f4bc
00000050: ede6 5a3c 3ca3 4bbc fed4 fbbc 6e58 823c
00000060: 4ee4 85bc b23c 5fbc 0ff4 983c ade4 113c
00000070: 4553 5e3c aeb8 39bc e43c 9ebc ca12 043d
00000080: eda8 90bc a85b 13bc e951 cd3b 34e1 eebb
00000090: e1e6 053d f137 473a a85e e43b 990e b73b
000000a0: 08f2 b33c 4b8b 0abd 667a 1f3d 744a f73b
000000b0: e8b5 233d cd09 16bd 221c 22bc 274c 27bc
000000c0: 12d1 16bc b230 91bb 449c 8a3c 646b eb3b
000000d0: 9746 3e3c c97d 23bd 941a 5aba 170f 31bc
000000e0: dfde 83bc 4b85 6a3c 6924 37bd eccb 9f3a
000000f0: 50ee 593c bd41 0e3b df0e f7bc a7a2 d23c

model.encoder.embedder.input_embedding.11.bias f4 [64]
-4.355755e-05 -0.00020641487 0.00010864998 -0.00035428134 0.00021267364 -0.00044722873 0.00065466337 4.3791155e-05
0.0004940656 -0.00044047894 5.153214e-06 0.00048089144 0.00050125807 0.0004930066 0.0008643161 -0.0012773315
0.0005490191 -9.630838e-05 -0.0016801875 -0.0006965033 -0.00041936853 0.0003599959 0.0008593127 0.00043765001
-0.00060103124 -0.0010493428 0.0011105526 -0.0006087467 -0.00013165243 0.00017791278 -2.293099e-05 -0.00069168134
0.00094865495 -0.00038703802 0.00035018707 -0.0009877913 0.00075584557 0.0007492314 -0.00047058007 0.00025667148
0.00095422077 -8.1536484e-05 0.00033394742 -0.00031128814 -0.0002451779 -0.00055829843 0.00016703465 0.0002018006
0.000831977 -0.0002078637 0.00046023066 -0.00034447885 0.00060711766 7.0095404e-05 0.0006197471 -0.0004942744
0.0003228924 0.0007507893 8.154465e-05 -0.00043318194 -3.551556e-05 -0.0011959116 -0.00072439323 -0.00085376407
00000000: 90b1 36b8 1271 58b9 04db e338 d6be b9b9
00000010: 2501 5f39 067a eab9 b79d 2b3a 65ac 3738
00000020: 2e84 013a 15f0 e6b9 c5e9 ac36 2820 fc39
00000030: dc66 033a 1d3d 013a 4693 623a 226c a7ba
00000040: 0cec 0f3a 2bf9 c9b8 bd39 dcba 8c95 36ba
00000050: b1de dbb9 d5bd bc39 8043 613a 6474 e539
00000060: 868e 1dba 1a8a 89ba f68f 913a 4d94 1fba
00000070: 2e0c 0ab9 198e 3a39 ed5b c0b7 f351 35ba
00000080: 28af 783a 5deb cab9 5099 b739 c778 81ba
00000090: f023 463a 1168 443a 30b8 f6b9 dd91 8639
000000a0: ac24 7a3a 91fe aab8 aa15 af39 6334 a3b9
000000b0: 388b 80b9 c65a 12ba 0626 2f39 709a 5339
000000c0: 0819 5a3a fdf5 59b9 1d4b f139 2b9b b4b9
000000d0: fa26 1f3a 2f00 9338 8676 223a 3292 01ba
000000e0: e249 a939 9ed0 443a f302 ab38 b21c e3b9
000000f0: 8bf6 14b8 22c0 9cba 35e5 3dba 23cf 5fba

model.encoder.embedder.input_embedding.12.weight f4 [64, 1]
-0.016618326 -0.031312954 0.0522837 0.006491894 0.01003472 0.0014756019 0.009056367 0.014368946
-0.0017921902 0.026770325 -0.028612223 0.007830799 -0.009072349 0.011968574 0.0025520718 0.0005385308
-0.023307305 0.013469866 -0.015611189 -0.0232853 -0.019925622 0.008566342 -0.010716829 -0.0051072016
0.023216905 0.06416259 -0.024008183 0.0069964887 0.017553309 0.010437134 0.0029579974 -0.0153271025
-0.016610943 0.0060681766 -0.019693661 -0.05174425 0.023791177 -0.01892802 0.017501172 -0.004973711
0.009768948 0.01170552 -0.02009892 -0.0049875034 0.009888788 -0.004166504 0.013984104 0.016324075
0.02835269 -0.035802033 0.050725747 -8.1313665e-05 0.042500414 -0.009924029 0.013523035 -0.022465944
0.010679087 -0.01398697 0.007611563 -0.02975166 -0.010643649 -0.030471547 -0.00015820828 0.010448754
00000000: 2823 88bc 0342 00bd 6f27 563d f4b9 d43b
00000010: ab68 243c fc68 c13a 2861 143c ba6b 6b3c
00000020: ede7 eaba 714d db3c 2e64 eabc c04c 003c
00000030: 31a4 14bc d617 443c a940 273b 312c 0d3a
00000040: f6ee bebc b6b0 5c3c 13c6 7fbc d0c0 bebc
00000050: 0f3b a3bc d859 0c3c a495 2fbc 505a a7bb
00000060: 6131 be3c ad67 833d cfac c4bc cd42 e53b
00000070: f5cb 8f3c 8300 2b3c f6da 413b 871e 7bbc
00000080: ac13 88bc 8ed7 c63b 9a54 a1bc c7f1 53bd
00000090: b7e5 c23c ef0e 9bbc 9e5e 8f3c 83fa a2bb
000000a0: f00d 203c 82c8 3f3c 7ea6 a4bc 366e a3bb
000000b0: 9504 223c 2b87 88bb 951d 653c 11ba 853c
000000c0: e743 e83c 27a5 12bd cdc5 4f3d f186 aab8
000000d0: ea14 2e3d 6598 22bc b88f 5d3c 800a b8bc
000000e0: 56f7 2e3c 9b29 65bc 6b6a f93b c1b9 f3bc
000000f0: b362 2ebc 779f f9bc b6e4 25b9 4031 2b3c

model.encoder.embedder.input_embedding.12.bias f4 [64]
0.0003046277 0.0005495027 -0.0010099428 8.006771e-05 0.0006797492 -1.2868831e-05 0.0009669545 0.00047544984
0.0012414919 -0.00040074872 0.00044130755 -0.0004928619 -0.00021650024 0.00017540145 -0.001260781 0.0004454648
0.0007538262 -0.0007865324 0.0005741995 -0.00082734495 0.000595515 -0.0017776097 0.00064030016 -0.0006127843
-6.2357416e-05 -0.0009499745 0.0011634525 0.00030224823 0.00025139682 -0.00041262218 -1.8815193e-05 0.0008714055
-7.921511e-05 -0.0007782904 0.00035434973 0.00068952574 -0.0007061228 -0.00017079864 0.00034045833 -0.0006534095
0.0022916102 -0.00013552599 0.00019789019 -0.00027376736 0.000603875 -0.00026787136 -0.00042633765 -0.0004518924
-0.0007283797 0.00031859055 -9.3166076e-05 -0.0008603371 0.00019389408 -7.504032e-05 -0.00073293183 -1.2904363e-06
0.00028794655 -0.0007748641 -0.00014586197 -0.00040093155 0.00012903425 0.00040307574 0.0008217139 -0.00032882884
00000000: 70b6 9f39 810c 103a 0f60 84ba 06ea a738
00000010: 3231 323a 35e7 57b7 387b 7d3a cc45 f939
00000020: 8eb9 a23a 951b d2b9 4c5f e739 6733 01ba
00000030: 5704 63b9 f8eb 3739 ca40 a5ba 468d e939
00000040: 6c9c 453a 4c2f 4eba e085 163a 2ee2 58ba
00000050: 561c 1c3a affe e8ba d1d9 273a 42a3 20ba
00000060: e2c5 82b8 b607 79ba fd7e 983a 1277 9e39
00000070: e9cd 8339 3655 d8b9 52d5 9db7 086f 643a
00000080: 4a20 a6b8 2f06 4cba 04c8 b939 4ac1 343a
00000090: 191b 39ba 6918 33b9 8b7f b239 9249 2bba
000000a0: d72e 163b fb1b 0eb9 be80 4f39 6f88 8fb9
000000b0: 5e4d 1e3a 1671 8cb9 1286 dfb9 f9eb ecb9
000000c0: bcf0 3eba 8008 a739 2862 c3b8 3f88 61ba
000000d0: 0c50 4b39 f75e 9db8 3922 40ba 0e33 adb5
000000e0: 88f7 9639 4020 4bba 86f2 18b9 1f34 d2b9
000000f0: 5e4d 0739 e953 d339 4968 573a a966 acb9

model.encoder.embedder.input_embedding.13.weight f4 [64, 1]
-0.021591632 -0.034957852 0.019825332 -0.0037505825 -0.0068025943 -0.0005947357 -0.004306843 -0.036099948
-0.019245818 0.016597297 0.018961376 -0.03353203 0.014536444 -0.013654266 0.017174434 -0.016598435
-0.001479792 -0.0024528427 -0.022568949 0.0075914864 0.0006964101 0.0072152517 -0.018751804 0.002060366
-0.038342573 0.006593122 0.00036913206 -0.0032983362 0.025722021 -0.021984946 -0.014502711 0.011644385
-0.020560762 0.021967907 0.03392834 0.026395923 0.004138392 0.02947694 -0.0021264518 0.034507226
-0.01106986 0.0071762167 -0.01884062 0.017059624 0.024371257 0.02678962 0.016406124 0.0004612441
-0.0064089336 -0.018443014 -0.019801874 0.008638974 -0.0078089326 -0.036866844 -0.054787554 0.012642042
0.021734115 0.006978511 0.010225908 0.009205058 -0.012627356 -0.0342821 -0.005318429 -0.05502845
00000000: efe0 b0bc f72f 0fbd bc68 a23c 55cc 75bb
00000010: 4ce8 debb 0ae8 1bba 6b20 8dbb 8add 13bd
00000020: 68a9 9dbc 0ef7 873c e354 9b3c e258 09bd
00000030: 442a 6e3c 24b6 5fbc 66b1 8c3c 71f9 87bc
00000040: 94f5 c1ba dfbf 20bb 84e2 b8bc 01c2 f83b
00000050: 4a8f 363a eb6d ec3b 629d 99bc 3507 073b
00000060: 1a0d 1dbd 1e0b d83b 1188 c139 e628 58bb
00000070: fdb6 d23c c619 b4bc c79c 6dbc 17c8 3e3c
00000080: 0b6f a8bc 0af6 b33c 71f8 0a3d 433c d83c
00000090: 599b 873b a079 f13c f15b 0bbb 7357 0d3d
000000a0: 5c5e 35bc 7826 eb3b a557 9abc a0c0 8b3c
000000b0: 3ba6 c73c e875 db3c 2366 863c 23d3 f139
000000c0: 0802 d2bb ce15 97bc 8a37 a2bc 7c8a 0d3c
000000d0: 13e2 ffbb b001 17bd ea68 60bd 9120 4f3c
000000e0: be0b b23c feab e43b 918a 273c d0d0 163c
000000f0: f8e2 4ebc 636b 0cbd 3746 aebb 8365 61bd

model.encoder.embedder.input_embedding.13.bias f4 [64]
0.0001333983 -0.0007945837 -0.0004587066 -0.00013984 -1.992661e-05 -0.0011100637 -8.920018e-05 0.00030800878
0.00018039734 0.0002512765 -0.00044542536 0.00027417918 -0.00022450545 0.0004404644 0.00016743656 -0.00039633823
0.00023403938 -0.00022025246 -0.00020370219 -9.11645e-05 -0.0003168179 -0.00014470823 -0.000116811294 0.00048178076
-0.0006274631 0.00013604223 0.00077382126 0.0002923755 3.911255e-05 7.319883e-05 0.00034171168 5.8482325e-05
0.0006953485 -0.00067456166 -0.00011652115 0.00046152956 -1.8792718e-05 0.00062522996 0.0005219589 -0.00039961445
0.00063210895 -0.00018167755 0.0011432021 0.00034127885 -0.00043795948 0.00065987086 -0.0003419691 -0.00067989866
-0.00028304735 -0.0002061752 -0.0011352199 0.00031361685 -5.3987613e-05 -0.00012129526 -0.00012465815 0.0005369954
4.5506116e-05 0.00049803284 -0.00031199036 -0.0003678924 -0.00021093542 0.00022059915 -0.000680237 0.00058362243
00000000: d5e0 0b39 9c4b 50ba 8f7e f0b9 04a2 12b9
00000010: 1228 a7b7 8f7f 91ba fb10 bbb8 3d7c a139
00000020: 0b29 3d39 c3bd 8339 fb87 e9b9 b5bf 8f39
00000030: 3969 6bb9 22ee e639 e991 2f39 9ecb cfb9
00000040: 7868 7539 92f3 66b9 e498 55b9 912f bfb8
00000050: 941a a6b9 d2bc 17b9 96f8 f4b8 8597 fc39
00000060: 567c 24ba 8fa6 0e39 44da 4a3a fa49 9939
00000070: c80c 2438 5382 9938 c427 b339 eb4a 7538
00000080: 0c48 363a 11d5 30ba d15c f4b8 73f9 f139
00000090: 0ea5 9db7 79e6 233a 12d4 083a 5883 d1b9
000000a0: 1db4 253a b280 3eb9 7fd7 953a aced b239
000000b0: ed9d e5b9 2ffb 2c3a 514a b3b9 3a3b 32ba
000000c0: f965 94b9 bc30 58b9 a9cb 94ba f16c a439
000000d0: c270 62b8 e65f feb8 abb6 02b9 27c5 0c3a
000000e0: d2dd 3e38 6b8e 023a a392 a3b9 afe1 c0b9
000000f0: 8c2e 5db9 a250 6739 ef51 32ba 3dfe 183a

model.encoder.embedder.input_embedding.14.weight f4 [64, 1]
-0.011443317 0.03962162 0.039178774 0.05377628 0.05319332 0.030074345 0.00846441 0.008385544
-0.012028183 0.0062046372 -0.046313852 0.008743312 -0.002789143 0.018761998 0.009048128 -0.00936524
-0.010056303 0.023961373 -0.0017159886 0.014855538 -0.020807758 0.0043518785 0.0025023727 -0.003285203
-0.016633289 0.014929382 -0.006207551 0.037504524 0.013315047 0.013162144 -0.008509744 -0.012802275
0.01497453 -0.0040645692 -0.022090027 -0.029070204 0.0044099754 8.729894e-05 -0.008354682 -0.009221896
-0.0076602143 0.039502278 0.021696474 0.055858064 -0.03534278 0.012818062 -0.036520272 -0.017244764
0.020760216 -0.014427967 0.024571788 0.015856659 -0.01001416 0.022011334 -0.025948877 0.009731394
-0.009325165 -0.024142502 0.031201947 0.04452228 0.010677359 0.028110461 -0.006171111 -0.015677193
00000000: c07c 3bbc 484a 223d ec79 203d 8444 5c3d
00000010: 3de1 593d 795e f63c 4fae 0a3c 8563 093c
00000020: db11 45bc 4550 cb3b 98b3 3dbd 1c40 0f3c
00000030: 0eca 36bb c3b2 993c 993e 143c aa70 19bc
00000040: 31c3 24bc a44a c43c 06eb e0ba a464 733c
00000050: 0875 aabc 349a 8e3b d9fe 233b 8f4c 57bb
00000060: 8942 88bc 5e9a 743c b668 cbbb 589e 193d
00000070: 5b27 5a3c 09a6 573c 746c 0bbc a2c0 51bc
00000080: bb57 753c 1430 85bb 25f6 b4bc a324 eebc
00000090: 8e81 903b 4314 b738 13e2 08bc 6f17 17bc
000000a0: 8902 fbbb 24cd 213d cebc b13c 6dcb 643d
000000b0: 97c3 10bd d902 523c 4896 15bd e444 8dbc
000000c0: 5411 aa3c 4863 6cbc c64a c93c d3e5 813c
000000d0: 6e12 24bc 1d51 b43c bd92 d4bc 6d70 1f3c
000000e0: 94c8 18bc 7fc6 c5bc 3a9b ff3c ff5c 363d
000000f0: 17f0 2e3c e947 e63c 0837 cabb 756d 80bc

model.encoder.embedder.input_embedding.14.bias f4 [64]
-3.4296867e-05 0.0013376393 -0.0007600527 -3.794708e-05 -0.0005057341 0.0009835265 0.0013397833 0.00137008
-8.3750274e-05 0.00014699069 -0.00058769283 -0.0009198213 -0.00084656215 -0.0007089961 -0.0009520531 0.00025451934
-0.0009453771 0.00059364195 0.0007501586 0.00011515394 -0.000812908 -0.00045145449 -0.0006395757 0.00015562
-0.00055593404 0.0004989999 0.00019040408 -0.0006963646 0.000121126104 0.00053642626 0.0008920998 -0.0004998448
0.0010527304 -0.0010643022 0.00069282163 7.6225675e-05 0.00058600184 -0.001746321 -0.00025442656 -0.00042813292
-0.0009774226 -0.00026111596 0.00046047644 0.000707446 0.0008020319 -0.0013784147 0.0006696309 0.0005218268
0.00027045855 0.0005597748 -0.0003922287 0.0005957422 -0.00072677765 -0.00021311233 0.00029454133 0.0008251636
-0.00018150664 0.0009569905 0.0007883534 0.0005297207 0.00048440846 0.00038539938 -8.438136e-05 0.0002684734
00000000: fbd9 0fb8 ba53 af3a 463e 47ba 5e29 1fb8
00000010: 3e93 04ba ace9 803a ab9b af3a 4294 b33a
00000020: 16a3 afb8 8321 1a39 660f 1aba 2a20 71ba
00000030: d3eb 5dba ecdb 39ba 3493 79ba 0271 8539
00000040: 2fd3 77ba a39e 1b3a 4ba6 443a cd7e f138
00000050: 5519 55ba 32b1 ecb9 33a9 27ba ed2d 2339
00000060: 1abc 11ba 51cf 023a 35a7 4739 3d8c 36ba
00000070: 1505 fe38 f59e 0c3a cedb 693a 0408 03ba
00000080: c5fb 893a 0e80 8bba 799e 353a 59db 9f38
00000090: eb9d 193a cfe4 e4ba 8e64 85b9 0777 e0b9
000000a0: dc1c 80ba 64e6 88b9 1a6c f139 e673 393a
000000b0: 733f 523a ecab b4ba 2b8a 2f3a 34cb 083a
000000c0: 55cc 8d39 dabd 123a 0ca4 cdb9 952b 1c3a
000000d0: 3985 3eba e876 5fb9 ab6c 9a39 cb4f 583a
000000e0: d152 3eb9 8cde 7a3a 80a9 4e3a f4dc 0a3a
000000f0: 34f8 fd39 6e0f ca39 e6f5 b0b8 e4c1 8c39
